app/src/main/assets/automobile.tflite (tflite, 20968 bytes, 5 tensors)

sequential/dense/BiasAdd/ReadVariableOp/resource f4 [64]
0	0x3d88d753	0.06681695
1	0x3eea382f	0.4574599
2	0xbd659bf4	-0.05605693
3	0x3e09c567	0.1345421
4	0x3de1eb20	0.11031175
5	0x3e47e1c5	0.19519718
6	0x3e0324c2	0.1280699
7	0x3e0aacd1	0.13542487
8	0x3c615d3f	0.013755142
9	0x3e04ac0a	0.12956253
10	0xbcc6a66d	-0.02424928
11	0x3e42c75c	0.19021362
12	0xbd050d0a	-0.03248314
13	0xbe547a4c	-0.20749778
14	0x3e1852e4	0.1487537
15	0x3e3e6db1	0.18596531
16	0xbdb48798	-0.08814925
17	0x3d5518cf	0.052025612
18	0x3c9c8cb2	0.019110058
19	0x3d479034	0.048721507
20	0xbd64f7da	-0.055900432
21	0x3dad894a	0.084734514
22	0x3dd32d8b	0.10311421
23	0x3e947803	0.28997812
24	0x3d826c1b	0.06368276
25	0x3da19d58	0.07891339
26	0x3e0ecaf5	0.1394461
27	0x3e598064	0.21240383
28	0xbd6f5c92	-0.05843789
29	0xbc926b3a	-0.017873395
30	0xbcec5533	-0.02884922
31	0x3e686467	0.2269455
32	0x3e5b4c94	0.21415931
33	0x3dfa7353	0.122290276
34	0x3e709953	0.23495989
35	0x3ec5dbf7	0.38644382
36	0xbddb6c5e	-0.10714029
37	0xbd8bed52	-0.06832375
38	0xbd9709f5	-0.07374946
39	0x3e83dd89	0.25754955
40	0x3e6fc3eb	0.2341458
41	0x3d9fabec	0.07796463
42	0x3e1d78fc	0.15378183
43	0x3d74b30c	0.059741065
44	0x3e341ee2	0.17589906
45	0x3de90991	0.11378778
46	0xbe6d99ff	-0.23203276
47	0x3dffe94a	0.12495668
48	0xbcc4f7e9	-0.024043994
49	0x3e2cbcb2	0.16868857
50	0x3e0d8b92	0.13822773
51	0x3ce552cc	0.027993582
52	0x3d0a18c0	0.03371501
53	0x3d74f673	0.059805345
54	0x3dc68746	0.0969377
55	0x3e855ea8	0.2604878
56	0xbc7b1399	-0.015324497
57	0x3e67692a	0.2259871
58	0xbd2ef3fd	-0.042713154
59	0x3e87ee18	0.2654884
60	0x3db519b9	0.08842797
61	0x3d6f6fd9	0.058456276
62	0x3d916562	0.07099415
63	0x3d1b66b4	0.037939742

sequential/dense_1/BiasAdd/ReadVariableOp/resource f4 [64]
0	0x3df39e99	0.118954845
1	0xbdba26ed	-0.09089456
2	0x3e07ba3a	0.13254634
3	0x3e049b6f	0.12949918
4	0x3dfd3235	0.12363092
5	0x3dfc7dd9	0.12328691
6	0x3df7d1ab	0.12100538
7	0x3e1a37b1	0.15060307
8	0x3df42825	0.119217195
9	0x3dfcc363	0.123419546
10	0xbd131bb8	-0.035915107
11	0xbd96a38a	-0.07355411
12	0xbd8d9f95	-0.069152035
13	0x3df64507	0.12024885
14	0x3dd8db6d	0.10588727
15	0x3dec4bc4	0.11537889
16	0x3d09f90e	0.033684783
17	0x3df057ff	0.11735534
18	0x3e096cf5	0.1342047
19	0xbdc32e81	-0.09530354
20	0xbd959147	-0.073031
21	0x3dbc69aa	0.09199841
22	0x3de9f09b	0.11422845
23	0x3d5fafb8	0.054610938
24	0x3dfd4792	0.123671666
25	0x3dfa2309	0.12213714
26	0x3df8ea42	0.12154056
27	0xbd726008	-0.059173614
28	0xbd2163c3	-0.03940178
29	0xbd9ac7b8	-0.075576246
30	0x3d85b0ce	0.065278634
31	0x3decef0e	0.115690336
32	0x3e282435	0.16420062
33	0xbc5925d2	-0.013253646
34	0x3dede98e	0.11616813
35	0xbd3a9d90	-0.04556042
36	0x3de798d7	0.11308449
37	0x3e00c2b8	0.1257428
38	0xbdf04df9	-0.11733622
39	0x3e0569bc	0.13028616
40	0x3e025b9e	0.12730262
41	0x3de441d5	0.11145369
42	0xbd512c58	-0.05106768
43	0x3e02d44a	0.12776294
44	0x3decfde4	0.11571863
45	0x3df1b2eb	0.11801704
46	0x3def2171	0.116763
47	0x3de08c62	0.10964276
48	0x3df4c052	0.11950745
49	0x3d76683c	0.060158
50	0x3e0744d8	0.13209856
51	0x3d383f97	0.04498252
52	0xbccd1020	-0.025032103
53	0x3a04cf63	0.00050663034
54	0x3d92cb09	0.07167632
55	0x3e05c78b	0.13064401
56	0x3dfae8c9	0.122514315
57	0x3e03b0a6	0.12860355
58	0x3de4e558	0.11176556
59	0x3e229fb7	0.15881239
60	0x3dfbc1cb	0.122928225
61	0x3deea011	0.11651624
62	0x3e04e726	0.12978801
63	0x3db7f1a5	0.08981637

sequential/dense/MatMul f4 [64, 9]
0	0x3e5eb657	0.21749245
1	0xbf132b78	-0.57488203
2	0x3e3ec735	0.18630679
3	0xbe5cc94f	-0.21561168
4	0xbe04adee	-0.12956974
5	0xbeb27c77	-0.34860584
6	0x3eeaea22	0.45881754
7	0x3de5ef4b	0.11227282
8	0xbeaf5638	-0.34245467
9	0xbe09ac87	-0.1344472
10	0xbbf5e0f8	-0.007503625
11	0x3f36cc46	0.71405447
12	0x3e57e443	0.21083169
13	0xbe8d39dc	-0.27583206
14	0xbf223027	-0.63354725
15	0x3e7e630c	0.24842471
16	0xbf15f730	-0.58580303
17	0xb89c6300	-7.4571e-05
18	0xbef1f43d	-0.47256652
19	0x3efb3d1f	0.4907007
20	0xbd83b572	-0.06431092
21	0x3e54bebe	0.20775887
22	0x3dbce4c4	0.09223321
23	0xbd915670	-0.07096565
24	0x3e7466ea	0.23867384
25	0xbcdad2d9	-0.026711868
26	0x3e421332	0.18952635
27	0xbdc5ab26	-0.096517846
28	0xbe73ce2d	-0.23809119
29	0xbe5698fb	-0.20956795
30	0xbdba7dee	-0.091060504
31	0x3df56e39	0.11983914
32	0x3f160028	0.5859399
33	0x3c1bbb5e	0.009505121
34	0xbe7deedc	-0.24798149
35	0x3e6e16dd	0.23250909
36	0xbea6de80	-0.3259163
37	0xbe2f21e7	-0.17102776
38	0xbea317cc	-0.31854093
39	0x3da3d330	0.07999265
40	0xbd9d15ba	-0.0767016
41	0x3f365db3	0.71236724
42	0x3d86afbf	0.0657649
43	0x3bdc7f63	0.006729053
44	0x3d3be5aa	0.04587332
45	0x3f0c3c22	0.54779255
46	0xbeded126	-0.43518943
47	0xbea20d34	-0.31650698
48	0x3d5f13b9	0.05446217
49	0x3ce6fd15	0.02819685
50	0xbdd2131a	-0.102575496
51	0xbd67d4e4	-0.056599513
52	0xbeb918eb	-0.36151823
53	0x3e8fdfc3	0.28100404
54	0xbee49b18	-0.44649577
55	0x3e80b20b	0.25135836
56	0xbcb0dd50	-0.021589905
57	0xbca84149	-0.020538943
58	0xbda0483e	-0.07826279
59	0x3f2de188	0.6792226
60	0x3de328dd	0.110917784
61	0x3e9aedab	0.3025945
62	0xbf251d0a	-0.64497435
63	0x3ec496be	0.38396257
64	0xbf1c7e53	-0.61130255
65	0x3df3f153	0.11911263
66	0xbdaddb84	-0.08489135
67	0xbdf926f5	-0.121656336
68	0x3da0a199	0.07843322
69	0xbeaa4840	-0.33258247
70	0x3db5f2f8	0.08884233
71	0xbd8e6565	-0.06952933
72	0xbee85ccb	-0.45383295
73	0xbe11dea6	-0.1424509
74	0x3e3ab886	0.18234453
75	0x3ea44dab	0.32090506
76	0xbe01214d	-0.1261036
77	0xbeb5129d	-0.35365763
78	0xbebf8ac3	-0.37410554
79	0x3e761204	0.2403031
80	0x3e2283ed	0.15870638
81	0x3e3526b9	0.17690553
82	0xbea7a4e7	-0.32742998
83	0xbdc4b933	-0.096056364
84	0xbd0999ae	-0.033593826
85	0xbe24b92c	-0.16086262
86	0xbe14a28a	-0.14515129
87	0x3e5975f2	0.21236399
88	0xbec8a1fd	-0.39186087
89	0x3e49672b	0.19668262
90	0x3e0d7a1a	0.1381611
91	0x3e5f7b02	0.21824268
92	0xbef6d48b	-0.48209032
93	0xbe9cbb70	-0.30611753
94	0x3e977a18	0.29585338
95	0x3e1a8b28	0.15092146
96	0xbf05a6e6	-0.5220779
97	0x3ec69f6d	0.38793507
98	0x3ceb5079	0.028724896
99	0xbe14e5b8	-0.14540756
100	0xbe8fec1e	-0.2810983
101	0xbe853323	-0.26015577
102	0x3979a900	0.00023809448
103	0xbd96b726	-0.073591515
104	0x3f1460d5	0.57960254
105	0x3de609e3	0.112323545
106	0xbe427fed	-0.18994112
107	0xbd4a07d2	-0.049323864
108	0x3e980a17	0.29695198
109	0x3eb35285	0.35023895
110	0x3ab2aaa9	0.0013631183
111	0xbe1c9454	-0.15290958
112	0x3e5315e6	0.20613822
113	0x3edcc26c	0.43117082
114	0xbec782be	-0.38966936
115	0x3db28b5e	0.087179884
116	0x3ea86fb9	0.32897738
117	0x3ead381e	0.33831877
118	0x3cd0452b	0.025423607
119	0x3e5744eb	0.21022384
120	0xbf15e512	-0.5855266
121	0x3d7abcba	0.06121514
122	0x3effeb42	0.49984175
123	0xbef0dd8b	-0.47044024
124	0x3ed1d507	0.4098284
125	0xbe6313a2	-0.22175458
126	0x3edcb549	0.4310706
127	0xbcd1b3ce	-0.025598433
128	0xbd110dcd	-0.035413552
129	0xbe282fb9	-0.16424455
130	0x3bf865ce	0.0075804954
131	0x3ec8a72e	0.39190048
132	0x3e802ae6	0.2503273
133	0xbe7cb458	-0.2467817
134	0x3d4828b3	0.04886694
135	0xbf17618a	-0.5913321
136	0x3ee3d95c	0.4450177
137	0x3ec39e31	0.38206628
138	0x3e989e04	0.29808056
139	0x3e9e98ae	0.3097586
140	0x3db70bb6	0.089377806
141	0x3d9f9e90	0.07793915
142	0xbe85a24f	-0.26100394
143	0xbe8041b8	-0.2505014
144	0xbe3ccfaa	-0.18438593
145	0x3e2f9514	0.17146713
146	0x3ecf5d63	0.40500936
147	0x3eb11165	0.34583583
148	0x3ecedb83	0.4040185
149	0x3ea0d385	0.31411377
150	0xbda41a14	-0.080127865
151	0x3eccf3b0	0.4002967
152	0x3e6e281a	0.23257485
153	0xbe7ed80d	-0.24887104
154	0xbf0e6cfa	-0.55635035
155	0xbe8c6a42	-0.27424818
156	0xbe877d7f	-0.26462933
157	0x3c3a3e63	0.011367413
158	0xbe3a27ac	-0.18179196
159	0x3e32d8bc	0.1746549
160	0x3d35cac2	0.044382818
161	0x3db7b0b2	0.08969249
162	0xbd5cc060	-0.0538944
163	0xbe9a2b97	-0.3011138
164	0xbeaace53	-0.33360538
165	0x3df22cd5	0.11824957
166	0x3e5d6c73	0.21623401
167	0xbf2811f0	-0.6565237
168	0xbeb92f8a	-0.36169082
169	0xbdc54803	-0.09632876
170	0x3e676af1	0.22599389
171	0x3e01202f	0.12609933
172	0x3e9cc200	0.3061676
173	0xbea0c623	-0.31401166
174	0xbd79a409	-0.06094745
175	0xbdc9334d	-0.09824238
176	0x3d8fa80d	0.07014475
177	0x3d8ab8f6	0.0677356
178	0xbe6d2340	-0.23157978
179	0x3e1837f9	0.14865102
180	0x3dcc87d6	0.09986846
181	0x3ed024eb	0.40653166
182	0xbc27048a	-0.010193953
183	0xbe5804c0	-0.21095562
184	0x3e775540	0.24153614
185	0x3e4c277e	0.1993694
186	0xbe6b8cc6	-0.2300292
187	0x3e99af90	0.30016756
188	0x3e94ab0e	0.29036754
189	0x3eee014e	0.4648537
190	0xbda06d32	-0.07833327
191	0xbd15e22f	-0.03659266
192	0xbf064621	-0.5245076
193	0xbce3436e	-0.027742114
194	0x3eda810b	0.42676577
195	0x3ebec675	0.37260786
196	0xbd0e55f1	-0.03474993
197	0xbe314a9a	-0.17313614
198	0x3edac8b9	0.42731264
199	0xbd94f2fb	-0.07272907
200	0x3d938ec4	0.07204965
201	0xbec1a0c9	-0.37817982
202	0xbf15135a	-0.58232653
203	0xbebbe2d9	-0.3669651
204	0x3eefeac8	0.4685881
205	0x3de63bca	0.112418726
206	0x3d9e024d	0.077152826
207	0x3e3f23d2	0.18666008
208	0xbde83762	-0.113386884
209	0xbe227c2c	-0.1586768
210	0xbec9574c	-0.39324415
211	0x3eaf5a2f	0.34248492
212	0xbe966725	-0.29375568
213	0x3e1a7816	0.15084872
214	0xbe901cc8	-0.28146958
215	0xbe88039b	-0.2656525
216	0x3df4918d	0.11941824
217	0xbf0a3812	-0.53991807
218	0x3be0ec65	0.006864118
219	0xbcc15de0	-0.023604333
220	0xbd3a2778	-0.045447797
221	0x3acb76c6	0.0015523068
222	0xbeb54e08	-0.35411096
223	0xbdcf8ebf	-0.101346485
224	0x3e86d8a7	0.26337168
225	0x3f1bab48	0.6080823
226	0xbde8ddfc	-0.11370465
227	0x3d144ba5	0.036204953
228	0xbecba4b2	-0.3977409
229	0xbebf6e9d	-0.3738908
230	0x3e9429e4	0.2893821
231	0x3dc0f02e	0.09420811
232	0xbe981eed	-0.29711094
233	0xbe8a6e61	-0.27037337
234	0xbf2276e3	-0.63462657
235	0x3e8c5d87	0.27415106
236	0xbec39b0f	-0.38204238
237	0xbd926a63	-0.07149198
238	0x3dbad150	0.091219544
239	0x3d2c089d	0.0420004
240	0x3ec9f67e	0.3944587
241	0xbde8c1ac	-0.11365065
242	0xbdbf9a7b	-0.09355637
243	0x3e806424	0.250764
244	0x3e23f4cb	0.1601135
245	0xbe79d837	-0.24398886
246	0xbe82ee12	-0.25572258
247	0x3e6d229d	0.23157735
248	0xbe05cfb0	-0.13067508
249	0x3e253ca9	0.16136421
250	0xbe5d5748	-0.21615326
251	0xbecfb554	-0.4056803
252	0xbef255f0	-0.4733119
253	0xbeb11811	-0.34588674
254	0xbf1903a5	-0.59771186
255	0x3ddf25e4	0.10895899

sequential/dense_1/MatMul f4 [64, 64]
0	0xbb05946a	-0.002038265
1	0xbe67ca0d	-0.2263567
2	0x3e6f9653	0.23397188
3	0x3e0231a5	0.1271425
4	0xbdf098e9	-0.11747915
5	0x3cfeca48	0.031102315
6	0x3ee1b48d	0.44083062
7	0x3e0ed3c7	0.13947974
8	0x3ea3236f	0.3186297
9	0x3e4d912d	0.20074911
10	0x3de25198	0.11050719
11	0xbe1bb099	-0.15204085
12	0xbdec5fd2	-0.11541714
13	0xbd452fec	-0.048141405
14	0x3e564da3	0.20928054
15	0x3ddb6b73	0.10713854
16	0x3e9089a6	0.28230017
17	0xbe01d31e	-0.12678191
18	0x3e9b94e1	0.30387023
19	0xbc55ad09	-0.013041743
20	0x3e671ada	0.22568837
21	0xbef2bfb3	-0.4741188
22	0x3e5b4f3e	0.21416947
23	0x3d15e457	0.036594715
24	0x3d88fa24	0.066883355
25	0x3ed845ed	0.4224085
26	0xbe74bc94	-0.23900062
27	0x3e78527a	0.24250212
28	0x3db5fee9	0.08886511
29	0xbe204c54	-0.15654117
30	0x3dea0b4a	0.114279345
31	0x3df23a60	0.118275404
32	0x3e7806b3	0.24221306
33	0x3ea7ac8d	0.32748833
34	0x3e372aff	0.17887495
35	0x3ee7de41	0.45286754
36	0x3e0de587	0.13857089
37	0xbe3e6677	-0.18593775
38	0x3e1573de	0.14594981
39	0xbe85a2ee	-0.26100868
40	0xbd7ed3f9	-0.06221387
41	0x3d97fe15	0.07421509
42	0x3cb870f5	0.0225148
43	0x3c96bf50	0.018401772
44	0x3a02bf04	0.000498757
45	0x3e005103	0.12530904
46	0x3e44ae59	0.19207133
47	0xbd8a71ca	-0.06759985
48	0x3d8ef77d	0.069807984
49	0x3ebcb46b	0.36856398
50	0xbdf0d504	-0.117593795
51	0x3e92c6a2	0.2866717
52	0x3e371aa8	0.17881262
53	0xbe25a9b6	-0.16178021
54	0x3b76f7d3	0.0037684336
55	0x3d8e0dbd	0.06936214
56	0x3e83111b	0.25598988
57	0x3ec48440	0.3838215
58	0x3ddbe985	0.107379
59	0x3d227758	0.039664596
60	0xbc6a9004	-0.014316563
61	0xbe11b459	-0.14228953
62	0x3e969c9f	0.29416367
63	0x3e830706	0.25591296
64	0x3e98650a	0.29764587
65	0xbe2a0249	-0.16602434
66	0xbd4d5bd0	-0.050136387
67	0xbe9ae5c9	-0.30253437
68	0xbeb82044	-0.35962117
69	0x3e7bebe8	0.2460171
70	0xbf05d940	-0.5228462
71	0xbe8c3166	-0.27381438
72	0xbe33d176	-0.17560372
73	0x3e0350d5	0.12823804
74	0xbf24a920	-0.64320564
75	0x3f9e3b2d	1.2361809
76	0x3ef869b7	0.48518154
77	0xbf2dd9d5	-0.6791051
78	0x3e2fee02	0.17180637
79	0xbe4ee71b	-0.20205347
80	0x3ee45548	0.44596314
81	0xb8974e08	-7.2147755e-05
82	0xbe3ba035	-0.18322833
83	0xbda605e6	-0.08106594
84	0xbdc71a67	-0.09721833
85	0x3f16c4a6	0.5889381
86	0x3cb0a8b3	0.021564817
87	0x3e4e383c	0.20138639
88	0x3d189c87	0.03725865
89	0x3e642079	0.22278012
90	0xbe1d93af	-0.15388368
91	0xbe7232d0	-0.23652196
92	0x3d114ee8	0.03547564
93	0x3ebae300	0.36501312
94	0xbe6e2b8f	-0.23258804
95	0x3e6fa14f	0.23401378
96	0x3dd25871	0.10270775
97	0x3d0b9cc7	0.03408506
98	0x3db53ce9	0.08849508
99	0x3d42aca2	0.047527917
100	0x3edcc7eb	0.43121275
101	0x3f580cad	0.8439434
102	0xbe069d7d	-0.13146015
103	0xbbda1135	-0.0066548833
104	0xbf8fcbc1	-1.1234056
105	0x3dcdfa0a	0.10057457
106	0x3e28f5b7	0.16499983
107	0x3e88acbe	0.26694292
108	0x3f8a1283	1.0786899
109	0x3fb44d2a	1.4086049
110	0xbe609a9c	-0.21933979
111	0x3ee50e4d	0.44737473
112	0xbcd4a50d	-0.025957609
113	0xbefb99c0	-0.4914074
114	0xbeb5e06e	-0.3552279
115	0x3e9a32c6	0.30116862
116	0xbf250191	-0.64455515
117	0xbf7b74e3	-0.9822523
118	0xbf276411	-0.65387064
119	0x3e765f80	0.24059868
120	0xbf35589e	-0.70838344
121	0xbe899a87	-0.26875708
122	0x3ecaa79d	0.39581004
123	0xbef989c3	-0.48737916
124	0x3efb29c9	0.49055317
125	0xbf3188b6	-0.6934923
126	0xbf0e56e9	-0.55601364
127	0x3f9f2cfc	1.2435603
128	0xbcda8dcd	-0.026678944
129	0xbd165391	-0.03670079
130	0x3e5a4775	0.21316321
131	0x3dbbd358	0.0917117
132	0xbe1516ce	-0.1455948
133	0x3eadeda6	0.33970374
134	0x3ed5df30	0.4177184
135	0x3ec9dadd	0.39424792
136	0x3a9cf2c8	0.001197421
137	0x3ea371e6	0.31922835
138	0xbd09ee03	-0.03367425
139	0xbaa80289	-0.0012818138
140	0x3e69d588	0.22835362
141	0xbe0da07b	-0.1383075
142	0xbe3ee3a1	-0.18641521
143	0x3e02a1ad	0.12756987
144	0x3e080e0f	0.13286613
145	0x3b81c719	0.003960502
146	0x3da1ee14	0.07906738
147	0x3d3d35e5	0.046193976
148	0x3e5145a6	0.20436725
149	0xbf251cb7	-0.6449694
150	0x3d905493	0.07047381
151	0x3ea72fdb	0.32653698
152	0x3b785679	0.0037893339
153	0x3e4e11f6	0.20124039
154	0xbf0344b3	-0.512767
155	0x3e8e13d6	0.2774951
156	0x3bb58490	0.0055394843
157	0xbc80f0eb	-0.015739879
158	0xbc8ab8df	-0.016933857
159	0x3dac0b8c	0.0840064
160	0x3e47be20	0.1950612
161	0x3e81e8ec	0.25373018
162	0x3ecc6a9b	0.39925084
163	0x3ef8b721	0.48577216
164	0x3dcacb34	0.09902039
165	0xbeb0d35d	-0.34536257
166	0xbdffe4bf	-0.12494802
167	0xbe67b43f	-0.22627352
168	0x3e108fb3	0.14117317
169	0x3e5ea91c	0.21744198
170	0x3ea08f87	0.31359503
171	0xbb01b92d	-0.0019794211
172	0x3ea1c778	0.31597495
173	0xbc36dd06	-0.0111610945
174	0xbdf92cb1	-0.12166727
175	0xbdaee8e0	-0.08540511
176	0x3d81c0a7	0.06335574
177	0x3e2d89cd	0.16947098
178	0x3da456f6	0.08024399
179	0x3e195ad7	0.14976059
180	0x3ea5ee92	0.32408577
181	0x3e15099e	0.1455445
182	0x3d6bda58	0.057581276
183	0x3b8889fa	0.0041668387
184	0x3d6fe6d5	0.058569748
185	0x3db258ac	0.08708319
186	0x3e2043a8	0.15650809
187	0x3e6ab73f	0.22921465
188	0x3dd9740c	0.10617837
189	0x3dd887b1	0.10572756
190	0x3e909c56	0.28244275
191	0x3e46450d	0.19362278
192	0x3e3bd068	0.1834122
193	0xbd1ee135	-0.038788993
194	0x3e94e574	0.2908131
195	0x3cb73d4a	0.022368092
196	0x3e623c5f	0.22093342
197	0x3e4563fb	0.19276421
198	0x3e05c303	0.13062672
199	0x3e9ca5d8	0.3059528
200	0x3db8e1f8	0.09027475
201	0x3c0816b7	0.008306197
202	0x3e1237ce	0.142791
203	0xbe085ead	-0.13317366
204	0x3dcb0fd8	0.09915131
205	0x3e191d6e	0.14952633
206	0x3ddbcc65	0.107323445
207	0xbdc4d67c	-0.09611222
208	0x3ec44555	0.38334146
209	0x3d92cfcd	0.07168541
210	0x3e998112	0.29981285
211	0xbd75f892	-0.06005151
212	0xbe174e82	-0.14776042
213	0xbec32ef7	-0.3812177
214	0xbd7298eb	-0.059227865
215	0x3e20c99a	0.15701905
216	0x3e0be943	0.13663201
217	0x3e4e703d	0.20160003
218	0xbeab7f2b	-0.3349546
219	0x3cfb333e	0.030664083
220	0x3c510228	0.012756862
221	0xbdf90736	-0.121595785
222	0xbd240cd1	-0.040051285
223	0x3edc0899	0.4297531
224	0x3ea40aba	0.32039434
225	0x3e861849	0.26190403
226	0x3e96d596	0.29459828
227	0x3ed1c402	0.40969855
228	0x3e6fe6a2	0.23427823
229	0xbea56844	-0.3230611
230	0xbd9353ae	-0.07193695
231	0xbe894cca	-0.26816398
232	0xbb9812e6	-0.0046409247
233	0x3e8fd555	0.28092447
234	0x3df41c13	0.11919417
235	0xbd261d1c	-0.040555105
236	0x3e499bb2	0.196883
237	0x3e4eda34	0.20200425
238	0xbce70534	-0.028200723
239	0x3e82e1b8	0.25562835
240	0x3d992423	0.07477596
241	0x3ddafc35	0.10692636
242	0xbdc78115	-0.09741417
243	0x3e44777f	0.19186209
244	0x3dadf7ff	0.08494567
245	0xbc3ce997	-0.0115303015
246	0xbda31d1b	-0.07964536
247	0xbd582345	-0.05276801
248	0x3e839745	0.25701347
249	0x3d8e0b18	0.0693571
250	0x3eb981ee	0.3623194
251	0x3cfa4485	0.03055025
252	0x3dd46549	0.10370881
253	0x3e2be356	0.1678594
254	0x3de5be4d	0.112179376
255	0xbd1f775a	-0.038932182

sequential/dense_2/MatMul f4 [1, 64]
0	0x3e81f25f	0.25380227
1	0xbf72deae	-0.9487103
2	0x3eeb582e	0.45965713
3	0x3eceb82a	0.4037488
4	0x3edc355a	0.43009454
5	0x3ed4b7c4	0.41546452
6	0x3eafb111	0.34314778
7	0xbfb5316a	-1.4155705
8	0x3e940377	0.28908893
9	0x3e9bb08c	0.30408132
10	0xbe27bdaa	-0.16380945
11	0xbf72e7d5	-0.94885
12	0xc0024bd4	-2.0358782
13	0x3eba9831	0.36444238
14	0x3e2153d2	0.15754631
15	0x3e675458	0.22590768
16	0xbfaa9356	-1.3326213
17	0x3e8a466c	0.27006853
18	0x3ed18127	0.40918848
19	0xbf8dfb1f	-1.1092261
20	0xbf1c8498	-0.6113982
21	0xbff7dc5f	-1.9364127
22	0x3e730b22	0.23734716
23	0x3def5751	0.11686576
24	0x3ecd14ea	0.4005502
25	0x3e9dd7f2	0.30828816
26	0x3ea88a50	0.32918024
27	0xbf38d999	-0.7220703
28	0xbdf16587	-0.11786943
29	0xbd8e66d7	-0.06953209
30	0xbfe4bfb9	-1.7871009
31	0x3e517abe	0.20456979
32	0xc03d3346	-2.9562545
33	0xbf484cbe	-0.782421
34	0x3e3391fe	0.1753616
35	0xbe52130b	-0.20515077
36	0xc00d8a17	-2.2115533
37	0x3ee3b0bb	0.44470772
38	0xbfe2940c	-1.770143
39	0x3eb4b043	0.35290727
40	0x3ebbdb1d	0.36690608
41	0x3e477be5	0.19480856
42	0xbe6a9d76	-0.22911629
43	0x3edb843e	0.4287433
44	0x3e827c49	0.25485447
45	0x3e541eac	0.20714825
46	0x3e7e39f1	0.2482679
47	0x3e42cf24	0.1902433
48	0x3ef13988	0.47114205
49	0xc059811e	-3.3985057
50	0x3ed1a44b	0.40945658
51	0xbf2f778f	-0.68541807
52	0xbe20109c	-0.15631336
53	0xc045b33d	-3.0890648
54	0x3f172851	0.5904589
55	0x3e81f339	0.25380877
56	0x3eb2c1dd	0.3491353
57	0x3ed98874	0.42486918
58	0x3e5726e9	0.21010937
59	0xc06819a5	-3.6265652
60	0x3ea4f76d	0.3222002
61	0x3e737d16	0.23778185
62	0x3ec02eaf	0.37535617
63	0x3e05a3f5	0.13050826
